GAN/plots/checkpoint/checkpoint_100000.tar (torch, 14118 bytes, 22 tensors)

main.0.weight f4 [16, 2]
000000 c5 a6 4c 3f 52 c5 79 40 a3 88 bf bf 4a be bd bf
       0.7994197 3.9026685 -1.4963573 -1.4823697
000010 47 e1 f1 3f 51 49 16 40 83 36 c9 bf b3 d5 3b bd
       1.8896874 2.3482249 -1.5719761 -0.045858096
000020 e9 c6 5c c0 70 74 9a bf d7 1f 7b 3f b2 d0 47 bf
       -3.4496405 -1.2066784 0.9809546 -0.7805282
000030 2e bf 94 3f f6 f1 94 3f 9c 4a 4b c0 ba 53 27 c0
       1.1620843 1.1636341 -3.1764288 -2.6144853
000040 67 d5 65 c0 23 41 54 c0 9e 46 f7 bf ea 7a 7d bf
       -3.59115 -3.3164756 -1.9318426 -0.99015677
000050 31 f2 86 3e 1b 96 49 3f 91 51 01 40 52 ea e8 3f
       0.26356652 0.7874467 2.0206034 1.8196509
000060 bc 09 9d 3f fb a7 c5 3f 9f fb 24 3f 96 fc ae be
       1.2268596 1.5441889 0.64446443 -0.34177083
000070 d9 7b 04 40 04 1b f8 3f 80 5c 96 bf 63 09 ec be
       2.070059 1.9383245 -1.1746979 -0.46100911

main.0.bias f4 [16]
000000 d2 3f ee bf bb 47 7b ba a6 49 5f c0 0f 94 82 3f
       -1.8613226 -0.0009585579 -3.4888701 1.0201434
000010 e2 1e a3 3e 1e 13 f5 bf f2 6d 92 bf 12 9d bc bf
       0.318595 -1.9146459 -1.1439803 -1.4735434
000020 1f 33 82 bf 63 63 9e 3e 94 63 36 bf 37 f0 88 bf
       -1.0171851 0.309352 -0.71245694 -1.0698308
000030 be 49 c9 bf f1 10 01 3f 90 8b 3e bf 9d f8 ae 3f
       -1.5725629 0.50416476 -0.74431705 1.3669621

main.2.weight f4 [16, 16]
000000 b6 5e bd 3e ae 19 f1 3f fd de 62 bf 2f db 40 bf
       0.3698632 1.8835962 -0.88621503 -0.7533445
000010 c8 10 cb 3e cb 0e d7 bd 9c 10 94 3f 35 90 e2 bc
       0.3966124 -0.105008684 1.1567569 -0.027656654
000020 34 17 5a bf 06 c9 12 3f 46 0b 69 3f 1e 58 b5 bf
       -0.85191655 0.5733799 0.91032827 -1.4167516
000030 09 af 4d 3f d8 c5 e4 ba 8c 34 45 3f 2c 63 8e 3f
       0.8034521 -0.0017453982 0.77033305 1.1124015
000040 49 fe 97 3f f8 f8 65 bf f6 07 07 40 18 f1 a5 be
       1.1874477 -0.8983302 2.109861 -0.32410502
000050 fa 71 ea 3e 09 21 91 be f7 dd 36 bf 35 0b 6d 3e
       0.45790082 -0.28345516 -0.7143244 0.23148806
000060 54 f0 7c 3f a1 25 38 bf 3c 21 10 ba f4 4b 93 3e
       0.9880421 -0.7193242 -0.00054981164 0.28768885
000070 b2 6c e6 3e a9 29 3b bf 29 52 45 bf 5b 16 94 bf
       0.45004803 -0.73110443 -0.7707849 -1.1569322
000080 e5 7d 1d bf 91 e4 53 3f 5c a6 77 c0 c5 d3 5d bf
       -0.61520225 0.8277064 -3.8695288 -0.8665126
000090 b0 1c fc bf 30 c7 90 3e 97 16 8a 3f 6d 72 be be
       -1.9696255 0.28276968 1.0788144 -0.37196675
0000a0 a6 9a 03 3f c3 81 11 3f c1 bc ad 3f 82 4c 18 bf
       0.5140785 0.56838626 1.3573228 -0.5949174
0000b0 16 d9 aa 3f 65 8c a5 bf be 9f 12 40 fb cf 9b 3e
       1.3347499 -1.293347 2.291 0.30432114
0000c0 12 6a 40 bf bb c3 90 3f dd e9 0f 3f 13 6b 9d bc
       -0.7516185 1.1309732 0.5621622 -0.019216096
0000d0 5b 65 6d c0 60 e8 fb bf 82 ec 56 3e f1 6f c5 3f
       -3.7093112 -1.968029 0.20988658 1.5424787
0000e0 d7 65 16 be d0 e6 a3 3f bb 15 56 bf fe 00 5e be
       -0.14687286 1.2804813 -0.8362691 -0.21680066
0000f0 9e 35 1d c0 bd 6d 83 3f d9 43 bb bf 2b 5a 42 bf
       -2.4563975 1.0267864 -1.463008 -0.75918835
000100 da f6 ca 3e bd 7b 66 bf 5f a1 2c 40 c5 fb 0e bf
       0.39641458 -0.9003256 2.6973493 -0.5585292
000110 cb 96 2a 3f ff d2 32 3e 96 49 8e bf cf 14 0d 3f
       0.6663634 0.17463301 -1.1116207 0.55109876
000120 77 a5 82 3f a5 c9 27 bf a6 3b 3c bf c7 9a 8f 3e
       1.0206746 -0.6554206 -0.73528516 0.28047773
000130 a4 9b ea 3e be a7 96 bf 6e 9e e1 bf dd 0d 8f bf
       0.4582187 -1.1769941 -1.7626474 -1.1176106
000140 0c 67 a9 bf 02 dd af 40 4d c5 ba 3f dc 3d 75 bf
       -1.3234572 5.4957285 1.4591461 -0.95797515
000150 e5 98 80 bf ef c7 cc bf b3 7b 3e bd 69 78 4d 3d
       -1.004666 -1.5998515 -0.046504688 0.05016366
000160 df cd 03 c0 1f 5c 45 40 11 1e 50 bf 15 bb 78 bf
       -2.0594404 3.0837476 -0.8129588 -0.97160465
000170 2b 84 6d 3f 4f 2a fc 3e 7d 69 03 c0 b6 b3 5c 3d
       0.927798 0.4925103 -2.0533135 0.053882323
000180 d4 49 f0 be ff 65 f7 bd 75 8b b7 3f d7 f2 f9 3e
       -0.46931326 -0.12080001 1.4339434 0.48818085
000190 8a 61 a5 3e a6 57 18 bf 39 5e a2 3f e3 c2 99 bf
       0.3230098 -0.5950874 1.2685004 -1.20126
0001a0 48 3b 7f c0 5b 97 78 3f 00 ae c9 bf f5 c1 62 bf
       -3.9879932 0.9710595 -1.5756226 -0.88577205
0001b0 33 ce 10 3f 50 3b 80 3f fd eb 77 c0 30 9a 8e bf
       0.56564635 1.0018101 -3.8737786 -1.1140804
0001c0 b0 f7 f5 3e 73 ca 85 3e 74 ae 85 c0 cf 90 f7 bf
       0.48040533 0.2613102 -4.1775455 -1.9341067
0001d0 67 86 e7 bf 46 da 02 3e 0b 6e a4 be a9 e2 96 3f
       -1.8087891 0.12778577 -0.32115206 1.1787921
0001e0 31 e7 71 bd fd 32 f9 be f8 38 20 3f dc 8c c8 bf
       -0.059058372 -0.48671713 0.6258693 -1.5667987
0001f0 6a 87 23 3f 00 0e 34 bf 92 4e 64 3f 43 d8 94 3f
       0.638785 -0.7033386 0.8918239 1.1628498
000200 da 6d d4 3e 01 66 73 bf 66 fd 1b 40 df ca b3 bd
       0.4149006 -0.9507752 2.4373412 -0.08778929
000210 82 0d 76 3f 2f 07 2f 3e 4f 3d a8 bf 24 eb 10 3f
       0.9611436 0.17092584 -1.314371 0.56608796
000220 be ad 67 3f e0 79 89 be ba e9 f6 be a5 a0 ed be
       0.90499485 -0.26850796 -0.48225194 -0.46411625
000230 e7 28 a9 3e c9 f0 a6 bf 37 91 dd bf 7e 4e 79 bf
       0.3303902 -1.3042232 -1.7309941 -0.97385395
000240 1e 70 45 3f 72 08 b8 3e ef 2e c5 c0 b1 81 df 3d
       0.771242 0.35943943 -6.161979 0.109134085
000250 37 d0 35 bf df 89 d5 bc 44 86 dc 3f 86 2c 51 bf
       -0.71020836 -0.026066719 1.7228475 -0.8170856
000260 27 14 1d 3f a1 44 17 bf 31 d1 46 40 1a 47 58 3f
       0.61358875 -0.59089094 3.106518 0.8448349
000270 f0 58 01 40 a0 1b 05 c0 09 a6 5b 40 91 08 95 bf
       2.0210533 -2.079811 3.432009 -1.1643239
000280 ef 4e e4 be 26 2b 8a 3f cc 9a 32 c0 b4 b0 a6 bd
       -0.44591472 1.0794418 -2.790698 -0.08139172
000290 b2 43 4e bf 44 5d b9 bd 9a 93 83 be 0a be ac 3f
       -0.80572045 -0.09050992 -0.2569855 1.3495495
0002a0 a7 22 5d 3e c4 04 78 3f 08 73 e2 bd e8 28 48 c0
       0.2159525 0.9688227 -0.11057097 -3.1274967
0002b0 49 28 55 3e a3 f6 3f 3e 12 61 ed 3e d2 43 70 3f
       0.20816149 0.18746428 0.4636312 0.93853486
0002c0 9c e7 6b c0 dc 63 54 bf 10 e5 0b 3f 8a 20 c4 3f
       -3.6860113 -0.82964873 0.54646397 1.532243
0002d0 c3 bb b3 bf d4 3d 3c bf 6b c8 a2 bf 0a 37 8c bf
       -1.4041675 -0.7353184 -1.2717413 -1.0954297
0002e0 8c f1 ea 3f b0 61 0b 3f 49 4d 1f bf 8d 94 a2 c0
       1.8354964 0.54445934 -0.622273 -5.0806336
0002f0 da a4 41 be 7c ba 7b bf 04 01 aa bf 99 7a 66 be
       -0.18910542 -0.9833143 -1.328156 -0.22507705
000300 7c 7d 80 3f 02 4f de 3f 80 88 47 3f 5b 26 a2 bf
       1.0038295 1.7367861 0.7794266 -1.2667955
000310 73 03 c0 bf 19 cb c9 bf 2e a3 f8 3e 9e 94 13 3f
       -1.5001053 -1.5765105 0.48561996 0.57648647
000320 69 ac a4 bf 2f fc 22 40 21 8e c9 bf 94 d0 dd bf
       -1.2865115 2.546642 -1.5746499 -1.7329278
000330 bb d1 8f be 73 ab 27 3f a5 3d 56 c0 85 f9 35 bf
       -0.280897 0.65495986 -3.3475125 -0.7108386
000340 cf 95 d4 be c2 d7 87 3f e2 e9 32 c0 f5 2d 27 bf
       -0.41520545 1.0612719 -2.795525 -0.653045
000350 f7 99 21 3f ce da af 3d 3e bc 59 bf eb f7 de 3e
       0.63125557 0.085866556 -0.8505286 0.4354852
000360 3a 62 23 3f 9d 7c 1f 3f f1 be b9 be 3f 5f 89 bf
       0.63821757 0.6229952 -0.3627849 -1.0732192
000370 06 88 89 bf 4e c2 1d 3f c7 c3 ca be ed 89 f3 3f
       -1.0744636 0.6162461 -0.3960249 1.9026467
000380 de ae 0a bf 96 73 74 3f b7 e5 11 c0 e9 1e 24 3f
       -0.54173076 0.9548887 -2.2796457 0.64109665
000390 30 30 32 bf 0e 73 39 be 2a 4d a9 3f 9e 87 32 bf
       -0.6960478 -0.18110296 1.3226674 -0.69738185
0003a0 fc 4e bb bf a3 31 05 3f e1 5d 16 3f 49 19 a7 3e
       -1.4633479 0.52028865 0.58737 0.3263648
0003b0 9c 2c 7f 3d 63 63 85 3f d7 4c cd 3f 87 fe 8d 3f
       0.062298402 1.0420955 1.6039075 1.10933
0003c0 63 86 e5 3e e4 52 5a bf aa 7d ae bf 34 34 39 3f
       0.4482909 -0.8528273 -1.36321 0.7234528
0003d0 6d d3 bf be ca e0 80 3f 8a 23 1c 40 c8 f4 65 be
       -0.37465993 1.00686 2.4396691 -0.22456658
0003e0 18 50 27 bf a4 1a 18 bd 5f 45 e8 3f 16 94 ef 3f
       -0.6535659 -0.03713478 1.814617 1.8717067
0003f0 92 f0 2d 40 9e bb 78 be dd 17 23 40 86 69 90 3f
       2.7178082 -0.2429032 2.5483315 1.1282203

main.2.bias f4 [16]
000000 cf ca d3 be ed 0f b6 3c 9c c8 e5 bf f3 7d ec 3f
       -0.41365668 0.02222439 -1.7951846 1.8475937
000010 07 a2 a1 be 7b b6 9d 3f 5d a8 02 40 2d 4c d1 bf
       -0.3156893 1.2321314 2.041526 -1.6351372
000020 1a ae a0 be 17 28 06 c0 70 c8 73 be 36 e6 8e bf
       -0.3138283 -2.096197 -0.2380693 -1.1164005
000030 b8 09 f3 3f 4e 08 96 bf 6d 85 de 3e 90 25 9d be
       1.8987341 -1.1721284 0.4346117 -0.3069272

main.4.weight f4 [2, 16]
000000 1a 5f 87 3f 8c 86 3e bf c5 84 6b bd 79 b3 10 bf
       1.0575898 -0.7442405 -0.057499666 -0.56523854
000010 03 7e 9f be 77 0b 04 40 85 7a 14 3f 5e 45 ab bf
       -0.31150827 2.0631998 0.5799945 -1.3380544
000020 be 57 af bc 3b d2 26 be 06 5c 66 be 0e 85 d1 3e
       -0.021404143 -0.16291134 -0.22496042 0.40921825
000030 82 ac 20 40 fc 4f 17 bf 97 26 67 3e bd 3b 3b 3e
       2.510529 -0.5910642 0.22573315 0.18284507
000040 d2 8c 9e 3f 3f 48 15 c0 94 0e 09 41 78 ae 73 bf
       1.2386725 -2.3325346 8.566059 -0.95188093
000050 e5 00 3f c0 27 3d 02 c0 f6 ba 41 c0 da f2 9f 40
       -2.9844296 -2.0349824 -3.0270362 4.998395
000060 b4 1b 44 c0 a9 4c 20 41 37 f6 a3 40 d5 23 ef c0
       -3.0641909 10.018716 5.1238055 -7.473124
000070 4e c5 38 bf 81 04 23 40 87 b2 20 40 eb 18 b0 40
       -0.72176063 2.54715 2.5108964 5.5030417

main.4.bias f4 [2]
000000 8a fa d6 3f 8d 0a 29 3f
       1.6795208 0.66031724

main.0.weight f4 [16, 2]
000000 b8 8c df 3e b9 26 06 bd d6 36 68 3f 12 ed e4 3c
       0.43662047 -0.032751773 0.90708673 0.027945075
000010 b2 fc 21 3e 20 c1 4d bf 11 6d 6f 3f 1e c2 8d be
       0.15819052 -0.8037281 0.935258 -0.27687162
000020 b7 f0 19 3f c8 fc 1c 3d 81 d9 f1 3d 47 57 9f be
       0.60132927 0.03832701 0.11809064 -0.31121275
000030 5a 97 1b 3f 22 54 0d be 79 fd 64 bf 8a d1 4d be
       0.6077782 -0.13801625 -0.8944927 -0.20099464
000040 b3 89 2c 3f d3 00 bc 3d 85 7b 97 bf 11 d5 5f 3e
       0.6739761 0.09179845 -1.183457 0.21858622
000050 b7 bd b2 3e e2 50 06 be 66 2a 4f bf cb 29 13 3e
       0.34910366 -0.13116792 -0.8092407 0.14371412
000060 24 6d 96 c0 d3 9c 63 3c 95 f3 aa be de 80 d9 bc
       -4.700823 0.01389237 -0.33388963 -0.026550706
000070 77 f9 0f 3f ac c0 20 bf bf e1 8e c0 f2 5d e6 bd
       0.5624003 -0.62793994 -4.465057 -0.112483874

main.0.bias f4 [16]
000000 f6 d0 d8 c0 4b 2d 28 c1 ab d4 23 3f 0a 34 ea 40
       -6.775508 -10.511058 0.6399638 7.3188524
000010 a9 e3 05 c1 88 3d 8b 40 c5 fa 79 c0 2a 5d 8f 40
       -8.368081 4.351261 -3.9059308 4.4801226
000020 b5 1f fc c0 84 96 14 40 d7 38 b1 c0 87 b1 d9 40
       -7.8788705 2.3216867 -5.5381885 6.802921
000030 49 28 ff 40 28 10 98 40 59 ae cc 3f 56 27 ae 40
       7.9736676 4.751972 1.5990707 5.4423018

main.2.weight f4 [16, 16]
000000 dc c9 38 40 14 40 97 3f 99 8b b4 3f d3 ed 80 bd
       2.8873205 1.181643 1.4105102 -0.06295361
000010 b4 5e a5 be 93 40 ac bf ae 3a 08 3f 4e 8e 7f bf
       -0.32298815 -1.3457206 0.5321454 -0.99826515
000020 27 62 bb 3f 72 58 37 bf b1 92 45 40 a0 ba 30 bf
       1.4639329 -0.7161933 3.0870783 -0.6903477
000030 b7 f0 21 be 87 6c af bf 6f 35 11 c0 d2 3b 99 3c
       -0.15814482 -1.3704995 -2.2688863 0.018705282
000040 38 79 1b bf 7f d1 6c 3d 5e 14 93 3e 50 27 19 bf
       -0.6073184 0.05781698 0.28726476 -0.5982561
000050 9c 58 2d 3f 95 46 25 c0 90 80 8f 3c 71 5e 02 bf
       0.6771333 -2.582433 0.017517358 -0.50925356
000060 9f 13 d5 3d 00 85 fa bf 15 db 5b 3d 10 82 45 3f
       0.10404133 -1.9571838 0.05367573 0.77151585
000070 cd 60 d3 be cd 82 b4 3e d5 bf 8d 3e 56 33 43 bd
       -0.4128479 0.35256043 0.2768542 -0.04765638
000080 02 e8 d1 bf 07 06 61 bf 28 5a b9 be fa c5 f8 3e
       -1.6398928 -0.8789982 -0.36201596 0.48588544
000090 a1 dc f3 3e 8d d7 15 3f 0c a1 ab 3d 04 9c c1 bc
       0.47629264 0.5853203 0.08380327 -0.023633964
0000a0 79 6f 83 bf 74 23 bb bf bb 56 04 3f 3d aa e4 be
       -1.0268394 -1.4620194 0.5169484 -0.44661132
0000b0 cf ea 10 bf a4 c3 0f bf e8 71 c2 3f 2d c0 07 3e
       -0.5660829 -0.561579 1.5191011 0.13256903
0000c0 5b 64 c7 bc 45 7e ad 3d a7 eb 26 3f fa 2d 8f 3f
       -0.024339845 0.084713496 0.65203327 1.1185906
0000d0 24 82 9d bf bc f7 0a bf 41 be 87 bf 9e fb cc 3f
       -1.2305341 -0.5428426 -1.0604936 1.6014287
0000e0 2a 1b f2 3e 3e a9 e8 be bf ee 76 3e 1a 7a 5c be
       0.4728635 -0.45441622 0.24114512 -0.21530953
0000f0 42 54 57 3f 40 5b c1 3f 7f 15 05 c0 40 a6 0a 3f
       0.8411294 1.5105972 -2.079437 0.5415993
000100 c4 9a a7 3f 4d ef 01 c0 94 61 41 be bf 9e f7 3f
       1.3094106 -2.0302308 -0.1888488 1.934532
000110 0d 8b f3 be df fa ee 3e 63 ed a2 3f 83 db 65 3f
       -0.47567025 0.46675774 1.2728695 0.89788073
000120 f3 f1 27 c0 d7 7b 74 3e 18 45 fa 3e 42 a0 98 3e
       -2.6241424 0.23875366 0.4888084 0.29809767
000130 73 25 c4 3f 12 0a 8a bf 20 4d b0 bf 56 0e a2 3f
       1.5323929 -1.0784323 -1.3773537 1.2660625
000140 65 91 8f 3e a5 7f ed be 35 95 ef 3f a2 14 3f bd
       0.28040615 -0.46386448 1.8717409 -0.046650536
000150 01 bd b0 3f 2e 1d 48 3e 31 48 ee 3e c8 33 e7 be
       1.380768 0.19542381 0.46539453 -0.45156693
000160 41 12 9a 3e 5b f6 b6 be 6e 63 42 40 7b 6e f1 bf
       0.30092052 -0.3573483 3.0373187 -1.8861841
000170 e9 59 53 bf c0 57 75 40 7c b8 1c c0 c6 87 d0 bd
       -0.82559067 3.8334808 -2.44876 -0.10182147
000180 af ce e9 40 16 a5 d6 3f cf 01 44 be d2 ee d1 bd
       7.30648 1.676913 -0.19141315 -0.102506295
000190 2b fe 02 40 96 f4 f2 3e 42 3d 21 be e6 ad ae bf
       2.0467632 0.4745223 -0.15746024 -1.364682
0001a0 89 c0 93 3e 84 80 07 bf b6 0d 30 40 f8 90 16 bf
       0.2885783 -0.52930474 2.7508368 -0.58814955
0001b0 e8 8a 83 3f b9 61 71 bd 53 19 df 3e 89 61 9a 3f
       1.0276766 -0.058931086 0.43574008 1.2061015
0001c0 3a e7 69 3f 92 af 86 bf 4f ed 6c 3f e2 dc 6f be
       0.9136845 -1.052233 0.92549604 -0.23424104
0001d0 9f fb 84 bf fe 05 e7 be 09 5e 23 3e 96 87 a0 be
       -1.0389289 -0.4512176 0.1595384 -0.31353444
0001e0 be fd 99 bf c2 23 06 c0 77 fe b3 bf 86 93 11 40
       -1.2030561 -2.0959325 -1.4062032 2.274629
0001f0 64 0a 34 3e 0a ed 09 40 2d f8 0b 40 56 50 74 bd
       0.17582089 2.1550927 2.1870224 -0.059646927
000200 5f 85 25 c0 75 00 bf bf 08 e1 ca 3f 35 d4 0d 3f
       -2.5862653 -1.4922014 1.5849924 0.5540193
000210 a2 73 0e 40 c5 eb 33 3f 1e c5 c3 3e 5d 04 ab 3f
       2.2258077 0.7028163 0.38236326 1.3360707
000220 aa e4 a4 3f 4c 45 16 3f 80 16 12 40 60 62 c0 bf
       1.2882283 0.5869949 2.2826233 -1.5030022
000230 27 da a3 3c fd 75 f7 3f a3 2b 1e c0 9e 56 c0 3d
       0.020001484 1.9332882 -2.4714134 0.09391521
000240 89 f9 cb bf 8b 5a 1c c0 00 f3 42 bf 82 25 f3 3f
       -1.5935527 -2.4430263 -0.7615204 1.8995821
000250 d1 48 ee bf 0d ed 93 bd b5 dc 52 bf 84 03 8b bf
       -1.8615972 -0.07222948 -0.8236802 -1.0860448
000260 2c 09 1a c0 46 53 25 be 2c 7f 90 bf 28 55 17 3f
       -2.4068098 -0.16145048 -1.128881 0.59114313
000270 1f 63 c0 3f 76 b9 50 3f c6 71 20 3d 29 09 c4 3f
       1.5030249 0.8153299 0.039171003 1.5315295
000280 cf 68 83 bf 3d d6 cf be de 1a 51 3d e1 59 ac bd
       -1.026636 -0.40593138 0.051051013 -0.084155805
000290 8b 4f eb be ed 19 5f bf c1 47 cb bd 2c 83 b2 3f
       -0.45959124 -0.87148935 -0.09925795 1.394628
0002a0 fa e7 75 3f 1e 80 51 bf 6b 64 c5 be bb 17 6b be
       0.96057093 -0.81836116 -0.38553175 -0.22958271
0002b0 b3 61 fd 3f da e2 c9 bf ac 6c 07 be da 4c 17 40
       1.979544 -1.5772355 -0.13225049 2.3640656
0002c0 ca 99 a8 3f 1a 29 af 3f e8 30 fd bd 68 1b 50 3c
       1.3171933 1.3684418 -0.12362844 0.012701847
0002d0 92 de d0 3d c4 46 a4 bf 44 2d ed be 15 fa ae 3e
       0.10198702 -1.2834096 -0.46323597 0.34175172
0002e0 18 ec 50 3f 59 4f 44 bf b5 4e f8 3e c7 e7 6e be
       0.8161025 -0.76683575 0.4849755 -0.23330604
0002f0 9c 83 dd bf ea f6 ba bf e2 e3 86 bf a8 65 9f bf
       -1.7305789 -1.4606602 -1.0538294 -1.2452898
000300 02 c0 ad be bc 99 16 c0 66 d1 b0 be 90 7b 03 40
       -0.33935553 -2.3531332 -0.34534758 2.0544167
000310 a8 5e 1f bf 77 d3 39 3e d5 7b b3 bf 4f 72 8f be
       -0.6225381 0.18147074 -1.4022166 -0.28016898
000320 48 23 38 bf 0a 93 8f bd 4b 04 77 be 39 59 22 3e
       -0.71928835 -0.07010467 -0.24122731 0.15854348
000330 dd 6d cf 3f ed 7e 0e 3e f7 7d 53 3c 7f bb ca 3f
       1.6205403 0.13915606 0.01290845 1.5838469
000340 6c 65 db bf 2e 43 7c bf 0e 26 df be c5 3b 39 be
       -1.7140326 -0.9854001 -0.4358372 -0.18089207
000350 6f e2 81 bf 8b a4 a8 3f f5 c2 b0 be 80 6f dd 3e
       -1.0147227 1.3175215 -0.3452374 0.4324913
000360 50 8d c6 bf 50 76 56 3f c2 9f 83 3d a9 54 46 3f
       -1.5511875 0.8377428 0.06426956 0.7747293
000370 34 0e 47 bf 6d d5 c8 3f 67 38 42 3f 32 45 5b bf
       -0.7775605 1.5690132 0.75867313 -0.8565246
000380 4c cd 79 c0 13 10 c9 be fc 8f b0 3f 2c 66 81 3f
       -3.9031553 -0.39270076 1.379394 1.0109305
000390 51 f2 19 c0 d1 74 b8 be 47 89 a7 bf 6b 8d 63 3f
       -2.4054148 -0.36026624 -1.3088769 0.8888766
0003a0 46 38 ce 3e 70 22 94 bf f1 15 fc be 49 44 b9 3d
       0.40277308 -1.157301 -0.4923549 0.090462275
0003b0 f5 b1 ee 3e 88 1f 59 3f 4a fa 24 3f 93 32 ae 3e
       0.46620145 0.8481374 0.6444441 0.3402296
0003c0 e2 80 b4 bf 5b 8a 08 c0 ad bc d2 bd 06 10 a3 3f
       -1.4101832 -2.1334445 -0.10289893 1.2739265
0003d0 ac e8 94 3f 96 b9 79 be dc 51 e9 3c 75 d2 21 3f
       1.1633506 -0.24387202 0.028481416 0.63211757
0003e0 ee 96 d4 be 34 94 70 3b 54 c6 ef be 92 a3 db be
       -0.415214 0.003670943 -0.46831 -0.42898232
0003f0 83 09 82 3e 9b c1 f5 bf ca 55 bf bf 7e c2 a1 3f
       0.25397882 -1.9199709 -1.4948056 1.2637479

main.2.bias f4 [16]
000000 71 4b 7b bf c5 c5 6d 3f 88 a5 e7 3e ae 76 0c 3f
       -0.9816199 0.928799 0.45243478 0.5486859
000010 9b ec b1 3f 2f 99 d2 bf 28 1b 5e c0 be c5 c7 3f
       1.3900331 -1.6452998 -3.4704075 1.5607221
000020 b2 72 0d c0 5c 41 4c 40 e3 56 35 3f 6a 6b 83 c0
       -2.2101254 3.1914892 0.70835704 -4.106862
000030 f0 7c aa 3f 74 e8 82 3f 2d 6f b9 3f f2 51 01 3e
       1.3319378 1.0227189 1.4487053 0.12628916

main.4.weight f4 [1, 16]
000000 5b c7 11 3f 36 18 8e 3f f7 2b 24 3f 38 99 8a 3f
       0.5694482 1.1101139 0.64129585 1.0828009
000010 11 ae 1e bf a3 c9 1f 3f bc ed 9d be c4 43 43 bf
       -0.61984354 0.6241705 -0.3084544 -0.7627528
000020 f9 79 04 c0 62 a5 dd be 57 66 a8 be c6 d4 12 bf
       -2.0699446 -0.4329024 -0.3289058 -0.57355917
000030 83 0b 80 3f 9b f8 7c 3e 2d 26 c3 be 37 91 35 3e
       1.0003513 0.2470421 -0.38115063 0.17731176

square_avg f4 [16, 2]
000000 ae 0e 3e 3c 69 59 36 3c 5e 88 9a 3d 42 6e ce 3d
       0.01160018 0.0111297155 0.07545541 0.10079624
000010 03 ad 0b 3d b7 4b 4e 3d f6 5f 05 3d 1e 48 80 3d
       0.034100544 0.050365176 0.03256222 0.06263755
000020 9d 8c f8 3a 76 83 dd 3a 20 9d c7 3a f7 5c d2 3a
       0.0018962804 0.001690014 0.0015229322 0.0016049434
000030 2d 00 6d 3b e9 11 8d 3b 50 6b ae 3c fb 0d 93 3c
       0.0036163435 0.0043051136 0.021291405 0.017951002
000040 54 fb fa 3c d9 72 0c 3d b7 2f b0 3c d5 57 b2 3c
       0.03063742 0.034289215 0.021507127 0.021770397
000050 bc b9 84 3b d9 53 b2 3b eb 9b a4 3b aa bd 98 3b
       0.0040504616 0.0054421243 0.0050234697 0.0046612816
000060 b9 b6 77 3a 2c ff e8 3a af a9 e4 3b 3d ee d3 3b
       0.000944953 0.0017776242 0.0069782357 0.006467609
000070 a9 49 4c 3d b1 c4 1d 3d ae d8 9b 3d d5 16 e6 3d
       0.049874935 0.038517658 0.07609688 0.112348236

square_avg f4 [16]
000000 a3 12 42 3d 47 fe c1 3e b8 24 84 3e d6 1c 94 3e
       0.047381055 0.3788931 0.25809264 0.2892825
000010 dc 4a c3 3b 77 3d 03 3c 88 34 ba 3c 16 ec a0 3d
       0.0059598517 0.00801026 0.022730127 0.0785753
000020 2c e8 e7 3d 8b b1 99 3d 3d 16 f6 3c 3e ad b6 3c
       0.1132358 0.07504567 0.0300399 0.022299405
000030 58 ea 0f 3c e8 41 c9 3c 31 e1 55 3e 26 91 1a 3f
       0.008783899 0.02456756 0.20886685 0.6037773

square_avg f4 [16, 16]
000000 ef 48 1d 3b 8d 83 8b 3b cb 3c 82 3b 8d 72 1a 3c
       0.002399977 0.0042576254 0.0039745322 0.009426725
000010 9e 65 70 3c 76 e5 35 3a dd 40 20 3a 53 5c 50 3b
       0.014672665 0.00069387944 0.0006113181 0.003179331
000020 90 14 22 3c f2 68 d7 3b d3 cd 50 39 a1 86 9b 3a
       0.009892598 0.0065737898 0.00019913101 0.0011865684
000030 36 e4 86 3a 5e 61 c3 3a 87 f9 aa 3a 05 ef 6a 3c
       0.0010291401 0.0014906337 0.0013044336 0.014339213
000040 69 83 54 39 21 15 c5 39 55 13 b2 39 4b 83 4e 3a
       0.0002026685 0.0003759051 0.0003396521 0.00078778405
000050 60 d4 a4 3a 64 16 63 38 ab 74 63 38 9c 0d 92 39
       0.00125755 5.414187e-05 5.4229673e-05 0.0002785743
000060 be f0 64 3a 57 ec 15 3a d0 ae 8f 37 ac c8 d1 38
       0.0008733383 0.00057191163 1.7128332e-05 0.00010003275
000070 35 9d bd 38 7a 33 e1 38 d4 de d1 38 89 cf 9f 3a
       9.0415044e-05 0.00010738424 0.000100074016 0.0012192588
000080 2d 1e 24 3b df a8 89 3b da 76 88 3b f2 c3 07 3c
       0.00250424 0.004201039 0.004164559 0.008286463
000090 8e 68 54 3c 36 af 14 3a 73 6a 20 3a 8a a0 36 3b
       0.012964381 0.00056718604 0.0006119378 0.0027866685
0000a0 b3 85 14 3c 3c 45 c6 3b 0a b4 67 39 c7 35 67 3a
       0.0090650795 0.006050734 0.00022096946 0.0008819964
0000b0 d8 6b 8d 3a 08 11 e7 3a 06 10 3d 3a 1f 22 64 3c
       0.0010789586 0.0017628977 0.00072121655 0.013924151
0000c0 90 47 2a 3a b8 3d 74 3a 81 78 77 3a 21 ee ac 3a
       0.0006495649 0.0009317058 0.0009440259 0.0013193527
0000d0 37 b3 00 3b 8c 35 dc 38 66 e5 0b 39 6e 30 17 3a
       0.001963807 0.00010500391 0.0001334153 0.00057674095
0000e0 d6 64 06 3b a2 49 8e 3a 75 4f 63 38 dc d3 4d 39
       0.002050688 0.0010855685 5.4195018e-05 0.00019629247
0000f0 97 93 7e 39 a8 c0 0e 3a 94 12 45 39 d8 6a 35 3b
       0.00024278309 0.0005445578 0.00018794305 0.0027682092
000100 d1 a5 80 39 3d 09 05 3a c5 f2 ee 39 3c 81 8b 3a
       0.00024537605 0.0005074924 0.00045575775 0.0010643373
000110 0b d8 e0 3a 52 6d 92 38 b1 3e 91 38 cb 79 c2 39
       0.001715423 6.982185e-05 6.925816e-05 0.00037093306
000120 4b 0e 9a 3a af f3 4b 3a e9 b1 bf 37 8d 42 d7 38
       0.0011753527 0.0007780147 2.285182e-05 0.00010264395
000130 e7 53 f9 38 ef 2e 0b 39 64 d9 aa 38 c0 e6 d6 3a
       0.00011888873 0.00013273557 8.146724e-05 0.0016395673
000140 dd 56 29 3b 52 ef 6c 3b 53 d4 93 3b 32 b4 52 3c
       0.0025839128 0.0036153388 0.004511395 0.012860345
000150 f4 e1 9c 3c 0e 3d 7d 3a b7 23 22 3a c6 77 5a 3b
       0.019150712 0.0009660282 0.00061851315 0.003333555
000160 ec 53 0d 3c 82 41 f2 3b 14 ce 6d 39 61 34 79 3a
       0.008625966 0.007393063 0.00022678851 0.0009506401
000170 02 f9 8e 3a 30 b2 5c 3b 0d f4 62 3a 99 32 8a 3c
       0.001090795 0.0033675544 0.0008657582 0.01686983
000180 0b 65 c5 3a 2d 23 7b 3a 81 96 22 3b 2f 66 a1 3b
       0.001506002 0.0009580132 0.0024808946 0.0049255113
000190 d5 5a 9c 3b f2 bc f5 39 32 ba a1 39 23 16 03 3a
       0.00477157 0.00046870817 0.0003084704 0.0005000552
0001a0 9d a8 ac 3a d8 c0 07 3b 35 0b 0b 39 9e 32 e1 39
       0.0013172809 0.002071431 0.00013260248 0.00042953057
0001b0 47 c6 17 3a c8 96 09 3b 40 3b c6 39 51 90 05 3c
       0.00057897385 0.0020994414 0.00037809648 0.0081520835
0001c0 ce ab 73 3b 77 0c f2 3a 8b 10 9f 3b 6c 9c 73 3b
       0.003718126 0.001846685 0.004854267 0.0037172092
0001d0 12 af 8d 3b 15 14 01 3a b9 eb 10 3a 9a f7 b9 3a
       0.0043238485 0.0004923952 0.00055282895 0.0014188171
0001e0 f5 2f 58 3b 2d d3 14 3b 3c de 9f 39 fa 13 28 3a
       0.003298757 0.0022708878 0.0003049242 0.0006411668
0001f0 cc dd 93 3a 32 de cb 3b 84 63 02 3a d1 71 3e 3c
       0.001128131 0.006221556 0.00049739354 0.011623816
000200 5c d7 98 3a e8 e6 86 3b bf 8a 07 3b b4 b4 c2 3b
       0.0011660862 0.0041168816 0.0020682064 0.0059419516
000210 30 bf 5f 3c ba 4c 90 39 5a aa bc 39 08 11 b2 3b
       0.0136564225 0.00027522986 0.00035985076 0.005434159
000220 bc 12 50 3c 13 66 bf 3b b2 cd d3 38 15 5b 21 3a
       0.012699779 0.0058410256 0.00010099578 0.0006155235
000230 d5 53 19 3a a6 69 66 39 de a7 09 3a 0a ff 02 3c
       0.0005848979 0.00021973866 0.00052511494 0.007995376
000240 34 b5 2c 3b 04 89 a8 3b 4e 95 9b 3b cd 4e 3c 3c
       0.0026353123 0.0051432867 0.004748023 0.011493397
000250 b5 88 91 3c e8 19 54 3a d7 34 3a 3a 5f 3c 7e 3b
       0.017765382 0.00080910185 0.00071032107 0.0038793308
000260 c2 51 44 3c 18 c9 02 3c 79 5c 76 39 77 75 88 3a
       0.011982383 0.007982515 0.00023494837 0.0010410984
000270 45 65 a0 3a b9 75 c2 3a 80 1a 68 3a 1c 54 8e 3c
       0.0012237212 0.001483611 0.00088540465 0.01737409
000280 31 f9 84 3c 4b 9f 06 3d 07 d3 f2 3c 16 56 8f 3d
       0.016232105 0.032866757 0.029641641 0.069988415
000290 51 5c e8 3d 11 e1 94 3b 81 a3 93 3b 24 85 c9 3c
       0.11345733 0.0045434316 0.004505575 0.02459962
0002a0 ec c6 9c 3d c6 06 51 3d 0e eb c2 3a 80 92 dc 3b
       0.07655129 0.05103185 0.0014871077 0.0067313313
0002b0 85 96 fd 3b 0c 9f 13 3c 5c 75 ae 3b 48 f5 da 3d
       0.0077388906 0.009010088 0.005324049 0.10691315
0002c0 92 b4 0d 3d d9 7d 8e 3d f9 52 7e 3d 0f 60 15 3e
       0.034596033 0.06957597 0.062090848 0.14587425
0002d0 30 59 74 3e 72 68 19 3c 7d 1b 1b 3c 8a 43 56 3d
       0.23862147 0.009363281 0.009467003 0.052310504
0002e0 0a 45 26 3e a7 3b dc 3d 9d e2 4c 3b 16 b0 68 3c
       0.16237274 0.10753565 0.0031263002 0.014202138
0002f0 16 29 85 3c ea 8e 9a 3c 5b ca 38 3c 7f a6 64 3e
       0.016254943 0.018866975 0.011278714 0.22329138
000300 d8 6f 14 3b b1 af 16 3b 97 15 59 3b d5 3f 9a 3b
       0.0022649672 0.0022992904 0.003312444 0.0047073164
000310 b8 92 d8 3b 55 c1 f2 39 98 9b d8 39 9a 8a 09 3b
       0.006609287 0.0004630188 0.00041314657 0.0020987154
000320 26 78 b5 3b 20 d6 4c 3b ed 46 49 39 73 69 18 3a
       0.0055380045 0.0031255558 0.00019195276 0.0005814053
000330 61 98 4e 3a 10 63 55 3b d3 ce 0d 3a 0c 30 1b 3c
       0.00078809826 0.0032560267 0.00054095424 0.0094719045
000340 a8 71 69 3b e1 05 e4 3b 8e 69 d4 3b 2d e8 80 3c
       0.0035620723 0.0069587086 0.0064823097 0.01573571
000350 a8 29 cf 3c 5a 21 88 3a 90 ef 7f 3a ef 3b b1 3b
       0.025288418 0.0010385916 0.00097631756 0.005408756
000360 fc 9e 85 3c 5d c3 36 3c de f6 a9 39 b7 a1 c1 3a
       0.016311161 0.011154977 0.00032418122 0.0014772926
000370 59 1b dc 3a 90 fd 15 3b 6e 2e 9d 3a e1 05 c1 3c
       0.0016792818 0.002288673 0.0011991987 0.023562374
000380 ab c4 47 3b 2b e1 a0 3b c2 84 be 3b 43 a5 53 3c
       0.0030482213 0.0049096546 0.005814166 0.012917819
000390 ef d4 8f 3c 6a 98 7b 3a d2 19 5c 3a 98 56 12 3b
       0.01755759 0.00095976016 0.00083961815 0.0022329446
0003a0 52 97 18 3c c5 8f 04 3c d5 e0 98 39 9b eb 99 3a
       0.009313421 0.008090918 0.00029159212 0.001174319
0003b0 e7 96 c0 3a ae 63 0b 3b e2 0b 6d 3a aa ed a8 3c
       0.001469341 0.002126913 0.0009042603 0.02062114
0003c0 fd 3a 80 3a d8 58 d4 3a 90 4d 17 3b cd 5e e8 3b
       0.0009783205 0.0016200794 0.0023087002 0.0070913793
0003d0 18 b2 04 3c 4a 2e 22 3a 29 10 a6 39 31 cf 9f 3a
       0.0080991015 0.0006186707 0.00031674028 0.0012192485
0003e0 ac 12 6d 3b ad 86 59 3b c2 6f d6 38 0d 5d e3 39
       0.003617446 0.0033191845 0.00010225132 0.00043366142
0003f0 4c 1c 0f 3a 64 d2 6f 3a f0 c8 bf 39 9d 6c 1b 3c
       0.00054592337 0.0009148477 0.0003658007 0.009486345

square_avg f4 [16]
000000 6c 79 9e 3b 7b 23 c8 39 ed 57 95 3b a5 20 91 3a
       0.004836252 0.00038173408 0.0045576007 0.0011072351
000010 06 10 ff 39 fc 3c d0 3b 1a 6a 79 3b 67 3f f9 3b
       0.00048649329 0.006354926 0.0038057626 0.007606435
000020 d8 81 d0 3a c1 b8 b0 3b a2 e3 00 3d 96 8f 85 3d
       0.0015907837 0.005393118 0.031467088 0.065215275
000030 61 23 a2 3b 36 3f e9 3b b3 f8 e1 3b 1b f7 64 3b
       0.004948065 0.007118131 0.0068961023 0.0034937325

square_avg f4 [2, 16]
000000 25 bf ad 3b 53 0f 8c 3a 16 6d 6d 3a 2b cb ea 3b
       0.005302327 0.0010685719 0.00090570876 0.007165333
000010 85 34 d6 3a 32 6b cf 3c b8 3b c4 3b c3 d4 13 3a
       0.0016342556 0.02531967 0.0059885643 0.0005639309
000020 c2 0c a8 3a c6 58 46 3c bc de 36 3d 56 30 b2 3c
       0.0012821185 0.012106126 0.04464601 0.021751564
000030 52 45 2f 3b 48 95 a4 3d 76 26 17 3d 50 e2 f1 3c
       0.00267442 0.08036286 0.036901914 0.02952686
000040 b0 a9 fe 3b 54 20 95 3a e8 e0 c4 39 62 bb 65 3b
       0.007771693 0.0011377432 0.000375516 0.0035054316
000050 d8 bb 7c 3a 51 10 2d 3d 5b 4b f3 3a 93 2e 49 39
       0.0009641028 0.04225189 0.0018561886 0.00019186204
000060 4b 10 74 39 7f 4b aa 3a d7 de a0 3d 1b da 15 3d
       0.00023275723 0.001299247 0.07855003 0.036584955
000070 e1 64 24 3b 8c 88 0c 3e 89 f7 45 3c 1c 74 55 3a
       0.0025084543 0.13723963 0.012082943 0.0008142607

square_avg f4 [2]
000000 58 35 d3 3a ab 8d a2 3a
       0.001611392 0.001240184

square_avg f4 [16, 2]
000000 fd bf ac 3f 5b c4 61 3e 25 00 a5 3e a5 3e 13 3f
       1.349609 0.2204756 0.32226673 0.5751746
000010 36 87 e8 3d 38 b0 61 3d d1 79 54 3d a9 27 45 3f
       0.113539144 0.055099696 0.051873986 0.7701364
000020 3c e9 30 3f ed 54 93 3e 93 9a 80 3f a0 f1 b8 3e
       0.6910589 0.2877573 1.0047172 0.36121845
000030 b3 49 1d 3e dd b1 c0 3e 4d 14 8b 3d 8a 71 b4 3d
       0.15360145 0.376357 0.067909814 0.08810718
000040 bd 7f c0 3e a9 d0 bf 3f 63 d2 31 3e 6b b1 ad 3f
       0.37597457 1.4985553 0.17365412 1.3569769
000050 cc 1b af 3f 5d ec 35 3e 40 b1 3a 3e 22 bc 1f 3f
       1.3680358 0.17765947 0.18231678 0.6239644
000060 10 9b 99 3b 5e bd d4 3f bb 27 d8 3e 0d f0 40 3f
       0.0046876743 1.662029 0.42217812 0.7536629
000070 48 58 39 3f 48 a5 5b 3f 0a 4d e9 3b 79 e4 6d 3d
       0.7240033 0.85799074 0.0071197795 0.058079217

square_avg f4 [16]
000000 23 4e 99 3b 09 09 a6 3a f9 72 00 3a ba 59 e2 39
       0.004678504 0.0012667488 0.0004899945 0.0004317293
000010 8c a1 30 3b 2b 7e 93 3b 98 3b ad 3a 77 ec 9c 39
       0.0026951758 0.0045011244 0.0013216613 0.0002993082
000020 91 e0 00 3b 5f ad 5b 3a f6 84 87 3b 5f 34 c0 3a
       0.0019665102 0.00083800213 0.004135723 0.0014664045
000030 1d e4 5b 38 bd 89 14 3b 8b 50 4f 3b 53 9d 48 38
       5.2426116e-05 0.0022665106 0.00316337 4.7830235e-05

square_avg f4 [16, 16]
000000 2f ec f4 39 1e 15 99 3c 13 cc 8d 3c b3 ab 87 3e
       0.00046715277 0.018686827 0.017309224 0.26498184
000010 4f e5 6b 3b a5 eb 41 3c 25 08 95 3c 31 ba 65 3b
       0.0035994833 0.011835967 0.01819236 0.0035053606
000020 eb 15 43 3c 52 04 4f 3d db 4d 51 3a 53 99 ca 3c
       0.011907081 0.05054123 0.00079843187 0.024731314
000030 59 55 06 3e 76 c5 9f 38 d9 a7 17 3d 41 c8 f7 3d
       0.13118495 7.618491e-05 0.037025306 0.12098742
000040 48 53 85 3a c8 68 82 3b 26 55 97 3d a0 b8 f7 3d
       0.0010171914 0.003979776 0.07389288 0.12095761
000050 d0 cb 3e 3a 4d c2 94 3c 63 f3 20 3c bf a8 57 3b
       0.0007278295 0.018159056 0.009823653 0.0032906977
000060 b0 b5 db 3b bc 61 15 3e 87 1f 62 3b fc 8c c7 3d
       0.0067050084 0.14588064 0.0034503655 0.097436875
000070 b7 1c 3e 3d cf 3d b0 3a f4 3a 8e 3d ab 5a 1b 3d
       0.046414103 0.0013446155 0.06944838 0.037928265
000080 fa 1a 32 3a 91 76 c2 3c 34 dc bb 3c 77 7c 22 3f
       0.0006794181 0.023738177 0.02293215 0.6347117
000090 1c d8 75 3b 00 13 35 3d 56 8b 15 3d 5b 08 a3 3b
       0.0037512844 0.044207573 0.036509834 0.0049753613
0000a0 99 4a 45 3c 95 8d a1 3d 0c 8e 94 3a fd 9c 0e 3d
       0.012041711 0.07888333 0.0011333837 0.034817684
0000b0 f8 78 82 3e 8b e9 10 3a 36 10 fe 3d 51 97 6f 3e
       0.25482917 0.00055279647 0.12405436 0.23397566
0000c0 7d 02 86 3a 80 ab 4b 3b 7d ff 91 3d c3 25 20 3e
       0.001022413 0.0031077564 0.07128809 0.15639405
0000d0 c3 92 13 3a c6 2e 99 3c a7 e9 16 3c 26 bf 5a 3b
       0.0005629474 0.018699061 0.0092109805 0.0033378094
0000e0 74 78 cd 3b e0 13 14 3e 5d 45 5d 3b 06 0e c0 3d
       0.0062704626 0.14460707 0.0033763268 0.09377675
0000f0 50 58 65 3d 80 1b e9 3a 87 40 8a 3d 81 f4 43 3d
       0.055992424 0.0017784685 0.06750589 0.0478406
000100 c9 06 c6 39 49 97 8b 3a ea a1 cf 3c cf 6f c0 3d
       0.00037770558 0.0010649945 0.025345761 0.09396326
000110 e1 78 55 39 2b b9 21 3c a8 f1 85 3b 74 8b a1 3a
       0.00020358294 0.009870808 0.0040876456 0.0012324885
000120 06 ae 01 3b 78 e2 5b 3d 3b c8 9d 3a 89 54 0e 3d
       0.0019787564 0.053682774 0.0012037823 0.034748588
000130 66 b6 fa 3c 09 23 44 3a e5 d0 ef 3c af 46 db 3c
       0.030604552 0.0007482027 0.029274413 0.026767103
000140 63 57 1b 3a 1c 72 c1 3c f9 c4 ad 3c f3 36 0f 3f
       0.00059258024 0.023613982 0.021212088 0.5594322
000150 9e 75 77 3b 4b c3 be 3c c2 42 e5 3c ec dc cd 3b
       0.0037759314 0.023286482 0.027985934 0.0062824395
000160 48 94 74 3c 5a 7c 8f 3d 48 30 92 3a 87 cc fb 3c
       0.014927931 0.0700614 0.0011153305 0.030737175
000170 83 a7 81 3e ba 6d 51 39 71 1f 7b 3d a5 fc 74 3e
       0.25323114 0.0001997267 0.06130928 0.23924501
000180 2d bc b8 38 0c 24 8d 3a 2b 1b a2 3b 55 df 99 3c
       8.808854e-05 0.0010768189 0.0049470863 0.01878325
000190 74 d3 50 39 8c b0 0c 3b ff dc e5 3a 93 9c 6e 39
       0.00019915198 0.0021467535 0.0017537175 0.00022755777
0001a0 c9 fc 40 3a 98 c4 3b 3c 71 5a 64 39 cb 20 d2 3b
       0.00073618867 0.011460446 0.00021777466 0.0064126006
0001b0 c1 2b f5 3b 1a 8b 37 37 f2 a0 fc 3b f8 13 c3 3b
       0.0074820225 1.0940037e-05 0.007709616 0.005953308
0001c0 68 fc 81 3a ca d8 3c 3d dd e6 09 3d cc 13 a0 3f
       0.0009917142 0.046105184 0.033667434 1.2506042
0001d0 e7 f5 d0 3b 96 1d b5 3d 0a 8c a0 3d c6 4e 25 3c
       0.00637697 0.08843534 0.0783921 0.010089582
0001e0 51 cd d8 3c e6 ce d9 3d be 7f dc 3a 1a 16 56 3d
       0.02646509 0.10635166 0.0016822738 0.05226717
0001f0 d1 e8 ef 3e dd d4 94 3a 16 58 74 3e 9e 1b e3 3e
       0.46857312 0.0011354942 0.23861727 0.44357008
000200 e1 90 1a 3b 38 2e 38 3c ab de 66 3e 3b 70 0b 3f
       0.002358489 0.011241488 0.22545879 0.54468125
000210 7a 32 c6 3a 19 a3 83 3d b0 da 06 3d 41 ae 22 3c
       0.0015121244 0.06427593 0.0329234 0.009929241
000220 ba f6 b3 3c 7f 89 fd 3e 5f 67 19 3c 17 cb 91 3e
       0.021968234 0.49518964 0.0093630245 0.28475258
000230 86 8a 4d 3e 06 4b dc 3a 21 d2 66 3e 2d 72 23 3e
       0.20072374 0.0016807027 0.22541095 0.15961523
000240 ef 8e f5 3a b6 41 5c 3a 6f 5d 80 3e e7 e5 c4 3d
       0.0018734614 0.00084021257 0.25071284 0.09614163
000250 07 3d e6 39 f7 30 2c 3d 75 d8 5e 3c 57 73 36 3c
       0.00043914487 0.042038884 0.013601412 0.011135898
000260 58 94 f9 3c cf 1a fb 3e 78 12 21 3c 2a 11 99 3e
       0.030466244 0.4904389 0.009831063 0.29895908
000270 22 52 d0 3c 45 d3 f0 39 35 2b 31 3e 88 92 62 3c
       0.025429789 0.00045933775 0.17301638 0.013828881
000280 58 46 5e 38 c2 3f 8f 39 d8 2f b9 3b 3c 3d 0c 3c
       5.2994437e-05 0.0002732259 0.0056514554 0.008559521
000290 25 36 1d 38 8f 2c ca 3a 3a 35 54 3a 49 79 55 39
       3.7482143e-05 0.0015424656 0.00080950896 0.00020358445
0002a0 cd 12 10 3a 53 ac 48 3c cf 00 6c 39 77 69 e9 3b
       0.00054959656 0.012248117 0.00022507015 0.007123168
0002b0 44 ca 46 3b bd 1f 31 37 bc 0f bb 3b 8a 2b 02 3b
       0.0030332962 1.0557412e-05 0.005708663 0.0019862377
0002c0 84 db 52 3b 92 db a6 3c cb 57 b6 3e 9a 4e 25 3f
       0.0032174299 0.020368371 0.35613856 0.6457306
0002d0 02 13 39 3b 04 17 dc 3d d5 d0 6b 3d 6b 10 4d 3c
       0.002824009 0.107465774 0.057572205 0.012516121
0002e0 27 7e 1a 3d b4 2a 49 3f 94 f6 61 3c 82 95 e1 3e
       0.037717965 0.78580785 0.013791699 0.44059378
0002f0 0c 7b 6e 3e 2a 98 2e 3a 44 87 c6 3e 70 ac 1f 3e
       0.23289126 0.00066602475 0.38775074 0.15593123
000300 b2 10 bb 3a 98 cc 49 3b 57 d5 e2 3d 67 b3 8e 3e
       0.0014271943 0.0030792113 0.110758476 0.27871248
000310 03 95 13 3a 1b 6b 0a 3d fc 1a 61 3c fa b4 a2 3b
       0.00056298095 0.03379355 0.013739344 0.0049654217
000320 c5 a1 01 3c eb 10 6f 3e d4 f7 a6 3b be 75 1d 3e
       0.007912104 0.23346297 0.0050954614 0.15376946
000330 1b a7 b6 3d 26 29 05 3b 16 d2 dc 3d a7 8e 9a 3d
       0.089185916 0.0020318716 0.10782258 0.0754674
000340 7d 6f 42 3a b3 0c 77 3b d7 84 a2 3d b8 f8 f5 3d
       0.0007417126 0.0037696778 0.079354934 0.1201033
000350 47 11 05 3a 03 ac b1 3c ff 2e 3a 3c ab b4 3a 3b
       0.0005076122 0.021688467 0.011363744 0.0028489034
000360 46 0c fc 3b 7e 14 30 3e 3d 0f 4f 3b c2 d0 cc 3d
       0.007691893 0.17195317 0.0031594776 0.10000755
000370 cf 57 2d 3d ea fc 1a 39 ff 4c a4 3d ec 72 e2 3c
       0.04232007 0.00014780802 0.08022498 0.02764269
000380 ad 9e fe 38 47 99 3a 3b 08 21 fc 3b 9e 34 0b 3e
       0.000121412195 0.0028472708 0.0076943673 0.1359429
000390 71 9d 96 39 09 7b 36 3c 29 c9 e7 3b 9a e1 67 3a
       0.00028727532 0.011137732 0.0070735407 0.0008845568
0003a0 6a 6c bf 3a 03 9a b5 3c c4 64 b3 39 f4 7d 37 3c
       0.0014604453 0.022168165 0.00034216617 0.011199463
0003b0 1c b6 44 3d c5 f6 6e 39 e0 ab f6 3c aa de 32 3d
       0.048025236 0.00022789378 0.030111253 0.04366938
0003c0 41 ee 94 39 a6 59 f6 38 95 f3 20 3d bc 49 3b 3c
       0.00028406273 0.000117468924 0.039294798 0.011431154
0003d0 34 fe 95 38 01 2a c6 3b fc 2c ff 3a dc d1 eb 3a
       7.152223e-05 0.0060474877 0.0019468362 0.001799162
0003e0 0b 8e a4 3b 66 7e 9d 3d b4 27 c8 3a 17 72 3c 3d
       0.0050218157 0.07690124 0.0015270622 0.046007242
0003f0 06 79 51 3b 8c 9e 48 38 87 64 d4 3c 0f 4b e5 3a
       0.0031963005 4.7831374e-05 0.025926841 0.0017493683

square_avg f4 [16]
000000 37 1f 0c 3a 4e 56 0f 3a 89 2e c1 3a 7c 0c 47 3a
       0.00053452275 0.00054678775 0.00147386 0.0007593108
000010 ab 73 ca 39 f1 cf bd 3a cc e5 d3 37 b1 55 34 3b
       0.00038614622 0.0014481527 2.5260168e-05 0.0027516896
000020 70 2f cd 3a 89 ca b2 39 a9 93 54 37 a0 22 70 3a
       0.0015654396 0.00034101706 1.26705645e-05 0.0009160433
000030 68 ae 8f 3a 4e be 39 39 7e 53 b7 39 5b 5f 40 38
       0.0010962011 0.00017713869 0.00034966687 4.5865174e-05

square_avg f4 [1, 16]
000000 ba 12 77 3e 3f 57 5e 3d df 11 a5 40 1b e4 3b 3d
       0.24128237 0.054282423 5.1584315 0.045871835
000010 5a 0c 17 3d c4 d3 49 3f 05 b2 94 3e 86 06 54 3f
       0.036877014 0.78838754 0.29042068 0.82822454
000020 6b f4 51 3d 95 69 3f 3f 9a 8f cf 3e a6 f8 68 40
       0.051258486 0.7477048 0.40539247 3.6401763
000030 06 5f 87 3d 99 f3 ae 3f 81 40 66 3f c9 e6 6f 3e
       0.06609921 1.366809 0.89942175 0.23427881
